models/onnx/nanocls_mobilenetv2_garbage_sim.onnx (onnx, 966255 bytes, 106 tensors)

classifier_honor.weight f4 [4, 1280]
00000000: 7f75 86bc 2ce1 86bc 5537 393c 4d72 69bc
00000010: 3c3b 92bd 1c7c 2e3c ff6f a73d 7854 f13c
00000020: eaff 3c3e 890b 9a3d d159 3d3e b62d 65ba
00000030: 3cff 793c c51e d53c 6a1d 1bbd 7849 0c3d
00000040: c19e bcba 00dc 2cbc 98f3 883b 6dad 17bd
00000050: 7c54 c73d 753e 883d 6c6c e9bd 0f8a f93d
00000060: d000 8a3b 7d06 ca3c e46d 7cbe e195 a13d
00000070: 2794 32b9 03db 513d 66b5 74bd 2c4f 77bd
00000080: 830b 653b d9fa fcbb c84e 14bd 0f76 2cbb
00000090: 2f46 b9bd dfe3 fe3c 76b3 ca3c 254c 543d
000000a0: 48ab 86bd e5ab 5e3d 0124 e63d de01 ef3c
000000b0: 0e55 34bc 46f2 7abc 3934 34bd 8c19 5dbc
000000c0: cfbe 29bd dfe1 c63d 7810 36bc 34ec a4bd
000000d0: 273c 253e a2cc 84bd 8de7 2fbd d79c a73c
000000e0: 2e4e 453e 2eb3 8ebd 3f2d 413c 15c1 023e
000000f0: a3c2 603d 48d6 60be f4e2 5f3c 54f8 55bd
00000100: 4c85 3eba c776 753d 1b91 68bc f19b b0bc
00000110: 8d76 043d 2062 17bc e9c0 583d 8c7a 1abd
00000120: 9c57 903c 2193 303c 1f86 a63c 3613 573d
00000130: d3d7 5a3b 29c3 2c3d 1e87 c9bb a954 d23d
00000140: eb0a 04bd c165 f7bb 6898 7fbd 7ab6 143e
00000150: 602c 08bd f7a6 9abe b772 c1bc a31a 8bbd
00000160: 2380 103d e07a 1dbd 8528 1bbd 999f 973d
00000170: 917f 943d b1ef a43d b9bc 1a3d a9de 91bd
00000180: c03e 9bbc 698f a9bc a2b4 84bb d8c7 b13d
00000190: a288 f63c 7162 79bc 2fad 0c3d 2afd babd
000001a0: ced9 b43c 97aa ac3a a717 b6bd fcc8 013d
000001b0: 1258 123e b974 8b3d 6567 07bd ffc1 18bb
000001c0: 24a0 c7bc d105 5cba 3d7d dcbc 5960 43bd
000001d0: ce56 b9bd 1e58 49bc 4d06 043d 5c53 fbbc
000001e0: 7142 1f3c e1a2 343b cd3b 923c 853f ffbc
000001f0: a2b7 08bc e912 d1bd 8158 32bc 1f3c 7cbd
00000200: 1da5 dbbd 233a 9c3d b26c 17be 0f3a 963d
00000210: 98c6 493c 0dd0 813e 6954 9dbc 3198 c53c
00000220: 74ee 37bd 20d0 8cbd 0806 343d 157b a73d
00000230: 142b 5f3c 1a0a 94bd ec5b fdbc 5f6a 2a3c
00000240: 1342 a03c 3a4f e23c 96aa 2bbd dfe3 b83c
00000250: 7703 843c afab da3d 1197 47bd e33f 613d
00000260: add2 7abd 45d1 df3d 3814 83bd 0a1e bd3a
00000270: c3e5 c3bd 3df5 9ebd 92ac 8ebd a875 423d
00000280: 2a94 8cbd 98a9 32bc 07d6 edbc 6066 35be
00000290: 2599 b63b 4fb8 2bbd bd49 0cbe 7ca7 16bc
000002a0: 3bf3 813d 402d d7bd aa61 a43d e1c0 9dbc
000002b0: 0dbf 063b 4ab5 98bd 1146 81bd 03db 403d
000002c0: 2406 823d 2c8a cebc 4ae7 81bc dd9f a43d
000002d0: fa49 ce3c a762 94bb 63a0 45bd adcc a23d
000002e0: 8320 04be 4d8d 67bc 74b7 a63c 8b82 883d
000002f0: 1e73 c0bc 8cef 073d 79b6 31bd ecc9 cc3c
00000300: dcb8 3f3d 000b e03b 13aa cbba d30b 43bb
00000310: 1e7d c53d 0ac6 e4bc 25f1 23bd 3253 08be
00000320: 49f6 c23d d623 9abd 6790 64bc 43c8 d5bc
00000330: 6272 323d df48 a73d 2411 483e f098 febd
00000340: 1aa6 d53d b4d2 663b 77f4 a8bd 7b1f f23c
00000350: d309 f73d aa42 7b3d 5ae5 1bbd 7de2 ffbb
00000360: d1f7 84bd 966b 11bd 2b5d 9a3c fff1 0cbe
00000370: 0c71 893c 0f75 53bd 05c3 b7bc 8e65 823d
00000380: 7227 1fbd 8438 b8bd 5b04 953c d4ad 50bd
00000390: b856 2e3d 08ad b13c f87c 833d 1cab 8b3d
000003a0: c7cb bc3d 45c7 6a3d 71b7 4c3e 7898 1a3a
000003b0: a3be 533e 8ecd 3abd 851d 983d dd25 dd3c
000003c0: 84f0 c0b8 3495 823d 5cfd c1bd becf 16bd
000003d0: 1ccd e5bd bcd5 bfbd 09ef fe3b cda8 593b
000003e0: e7b1 8bbb e884 e33c d0d0 0dbd 5335 3b3e
000003f0: b82e 123d 4775 24bd 69c2 a33c e28e 1fbe
-0.016413448 -0.016464792 0.011304696 -0.014248443 -0.07140204 0.010649707 0.081756584 0.029459223
0.18456998 0.075217314 0.18491293 -0.0008742468 0.0152586065 0.026015649 -0.03786985 0.034249753
-0.0014390574 -0.010550499 0.0041794293 -0.037030626 0.09732911 0.06652538 -0.11397633 0.12184536
0.0042115226 0.024661297 -0.24651295 0.07889915 -0.00017030594 0.051234256 -0.059743308 -0.06037824
0.0034949488 -0.007720333 -0.036207944 -0.0026315486 -0.090465896 0.031114517 0.024743777 0.05183043
-0.06575638 0.05436315 0.11237336 0.029175695 -0.011006607 -0.015316552 -0.043995116 -0.01349486
-0.041441735 0.0971105 -0.011112325 -0.08052865 0.16136228 -0.06484343 -0.042945433 0.02046053
0.19268104 -0.069677696 0.011790573 0.12768967 0.05487312 -0.21956742 0.01366495 -0.052238777
-0.00072677876 0.059927728 -0.014194752 -0.021558734 0.03233962 -0.009239703 0.05291835 -0.037714526
0.0176199 0.010777266 0.020327626 0.052508555 0.0033392801 0.042178307 -0.0061501404 0.10270054
-0.032236975 -0.007549972 -0.062401205 0.14522734 -0.033245444 -0.3020551 -0.02361427 -0.0679219
0.03527845 -0.03844726 -0.03788044 0.07403488 0.07250894 0.0805353 0.037777636 -0.07122547
-0.01895082 -0.020698266 -0.0040498534 0.08680695 0.030094448 -0.015221224 0.03434485 -0.091303185
0.022076514 0.0013173398 -0.0889123 0.031685814 0.14291409 0.068093725 -0.03305759 -0.002330899
-0.024368353 -0.00083932007 -0.026915187 -0.047699306 -0.0904976 -0.012289075 0.03223257 -0.030679397
0.009720431 0.0027562904 0.01785078 -0.031158218 -0.008344563 -0.10208685 -0.010885359 -0.061580773
-0.10724852 0.07628276 -0.14787558 0.073352925 0.012315415 0.25354043 -0.019205289 0.024120422
-0.04490514 -0.06875634 0.043951064 0.08177773 0.0136211105 -0.07228489 -0.03092762 0.010401337
0.019562757 0.027625669 -0.04191073 0.022569595 0.016114933 0.10677277 -0.048728053 0.054992568
-0.061236072 0.10928587 -0.06400341 0.0014428508 -0.09565308 -0.07761619 -0.06966509 0.047475487
-0.068641976 -0.010904692 -0.02903272 -0.17714834 0.0055724555 -0.041923817 -0.13700004 -0.009195205
0.06345221 -0.10506678 0.080264404 -0.01925701 0.0020560652 -0.07456453 -0.06312192 0.047083866
0.063488275 -0.02521237 -0.015857358 0.08038304 0.02518176 -0.004528362 -0.04824866 0.07949195
-0.12903027 -0.01413281 0.02035115 0.06665524 -0.023492392 0.033187434 -0.04338691 0.024998628
0.046807155 0.006837249 -0.0015538357 -0.0029761686 0.09643005 -0.027926464 -0.040024895 -0.13312986
0.095196314 -0.075263664 -0.013950444 -0.026096469 0.043566115 0.08168196 0.19537789 -0.12431514
0.10432072 0.0035220804 -0.08249753 0.029556027 0.12062421 0.061342873 -0.038060524 -0.007808982
-0.0649258 -0.035502993 0.018843254 -0.13764189 0.016777538 -0.051625308 -0.02243186 0.06367026
-0.038855977 -0.089951545 0.018190553 -0.050947025 0.04256317 0.021688953 0.0642032 0.06819746
0.09218555 0.057318944 0.19991852 0.00058973534 0.20678191 -0.04560619 0.074275054 0.026995594
-9.200073e-05 0.063761145 -0.094721526 -0.036819212 -0.11220762 -0.093669385 0.00777996 0.0033212185
-0.004263151 0.027773336 -0.034622967 0.1828206 0.035689086 -0.040150907 0.019990163 -0.15581849

classifier_honor.bias f4 [4]
00000000: f325 c1be ca4e 50ba 4e24 653f e35a 04bf
-0.37724265 -0.0007946311 0.8950852 -0.5170118

476 f4 [8, 3, 3, 3]
00000000: db54 67bd 8433 a4bd d8dc c9bd 937f 12be
00000010: e1dd 53be 87a7 69be d3eb 29be 37ce 71be
00000020: 8de6 85be 1c50 6b3c 73da 163d 7c1d 663d
00000030: d727 533d ebe2 9a3d 9884 ad3d 882a 793d
00000040: e806 cf3d 2fc0 dc3d 072c 113d 8273 0b3d
00000050: 880f c23d b734 333d 99f7 833d 19f3 d73d
00000060: 7125 353d e73b a83d e776 ea3d 47dd db34
00000070: 1949 6a34 27bd beb6 4a1e afb6 e1ff c7b6
00000080: 889b ff35 a68b 2b36 b853 edb4 efd4 8cb6
00000090: f040 2db6 b165 dab6 dcf8 0eb7 b442 c2b6
000000a0: bb59 e3b6 508a 26b7 f42e 7fb6 f325 e2b6
000000b0: 325c e1b6 7ba1 29b6 3c38 52b6 59f7 ecb6
000000c0: 7b04 54b6 7c21 c7b6 74d4 09b6 8bff cc35
000000d0: 202f 9cb6 384e 38b5 d447 913d a385 263e
000000e0: d060 1c3e 2fc7 bc3d 9e82 d13e a0f9 7a3e
000000f0: ffd4 24bd a6e5 053d ce6c 023d 8b57 84be
00000100: 0be6 fcbd ae8f 7ebe d67a 28be 40d0 b03e
00000110: 1c02 ecbc ba91 e1be dbea ccbe 14ba 06bf
00000120: 990b 0b3e e0c3 fa3d b8ce 1b3e cc9a 523e
00000130: 89eb ab3e 049c 693e 56ed b33d 7c08 9f3d
00000140: 0dbf db3d a2da b23c 59d9 dcbd ab4f 13be
00000150: 8745 453e b53a 0a3e 4e87 4ebd 6923 113e
00000160: fd2f b03d f4d6 71bd 13a3 853e 090f 95bd
00000170: b17d 80bd 681a ae3e 62f3 b73d 2588 a23d
00000180: 3617 393e f575 9abb 5930 4abd 1fff ae3d
00000190: fd4f aabd 67fe e8bd a3e9 1b3e c518 9c3d
000001a0: cfdf 4bbd 05bb 933d 4add fc3b d83e d7bd
000001b0: 2561 71b6 79f0 49b7 d8d8 ac37 9b3f 6cb7
000001c0: 0dc4 1137 d7fa 3a38 8444 6a37 f9cd 1038
000001d0: a21d 8538 6e72 77b6 7cea bcb7 8a18 4337
000001e0: 3cbf 72b7 7b3a 6636 a6f8 2038 3e71 3ab6
000001f0: ac70 0a38 e948 9438 4f2f 2a35 c085 1cb8
00000200: a62d 5334 6e3f e0b7 2892 9cb7 720b b837
00000210: 41cd 0cb6 0303 8a36 9811 1f38 1069 05bd
00000220: 3233 acbb 8abe 633d 01bf e93d ffaa ab3b
00000230: 9b63 8d3d 3804 4d3c 6972 5fbe a360 e4bd
00000240: 7e1b 8a3d 5aca eb3d d6da 7b3e 5b92 993e
00000250: 2363 863c efcb a73e 98d0 bcbc ecbe e0be
00000260: de25 1cbe 22b1 9abd 7842 9bbd 4dab 1ebe
00000270: 2e80 40bd 2cb4 15be 0d47 64be aa54 cbbd
00000280: 7dad 74be 3910 92be 5134 01be 36bb 94bd
00000290: ee27 f8bd cbb2 8cbd 59bc 8c3e 0cbd 893d
000002a0: 4385 27be 1474 a0bb e0b8 05be a5fd 083e
000002b0: 33dd 493e afeb 413e bb64 4f3e 5444 413f
000002c0: 811a ed3e 36bd b3bd bd1b 383d 9001 0bbe
000002d0: 7b2d 1fbe 9017 54bd 6090 c4bd d1b5 3abe
000002e0: 7b50 933d 3f36 3cbd b290 12be 0ec3 6abd
000002f0: e21c b2bd 0a00 b53d 2a97 c43d 13b5 efbd
00000300: 66ba 263e 831e 2c3e 18ae 9dbe 555a 4f3d
00000310: 7804 3b3e c74a 7abe 4b7c 223e 46aa 043e
00000320: d7a5 fdbd 4767 4b3e 369f cf3e ed09 02bf
00000330: 83dc 273e c175 dc3e 9804 67be d0a7 183d
00000340: 03c2 363c fa2f 36be d252 0f3e f010 4cbc
00000350: 735d aabe 4799 243d d600 1cba d1ca 57be
-0.05647741 -0.08017638 -0.09856576 -0.14306478 -0.20690109 -0.22817813 -0.16593866 -0.23613821
-0.2615246 0.014362361 0.036829423 0.056180462 0.051551666 0.075628124 0.08472556 0.060831577
0.10108739 0.107788436 0.03544238 0.034045704 0.094756186 0.043751445 0.0644371 0.10544414
0.04422516 0.082145505 0.1144846 4.095293e-07 2.1819541e-07 -5.6844615e-06 -5.2189325e-06 -5.9604504e-06
1.9044246e-06 2.5562272e-06 -4.4205603e-07 -4.197114e-06 -2.5816807e-06 -6.5087447e-06 -8.521802e-06 -5.789416e-06
-6.775573e-06 -9.926574e-06 -3.8025291e-06 -6.7397427e-06 -6.7162555e-06 -2.5276956e-06 -3.1325171e-06 -7.062143e-06
-3.159307e-06 -5.9345602e-06 -2.0538255e-06 1.5273557e-06 -4.6546484e-06 -6.8659165e-07 0.07093778 0.16261916
0.15271306 0.09217679 0.40919966 0.24509287 -0.04024219 0.032689713 0.031842045 -0.2584804
-0.12348565 -0.24859497 -0.16453108 0.34533882 -0.0288096 -0.44056493 -0.4002293 -0.5262768
0.13578643 0.122443914 0.15215576 0.20566863 0.33578137 0.22813421 0.087855026 0.0776529
0.107297994 0.021832768 -0.10783643 -0.1438586 0.19264804 0.13498957 -0.050422005 0.14173664
0.08602903 -0.059042886 0.26100978 -0.07278258 -0.06273974 0.3400452 0.089819685 0.07936124
0.1807526 -0.0047137686 -0.049362514 0.08544754 -0.08316038 -0.113766484 0.15225844 0.07621912
-0.049773987 0.072134055 0.0077168094 -0.10510033 -3.5968344e-06 -1.2036523e-05 2.0604974e-05 -1.40815055e-05
8.68832e-06 4.457947e-05 1.3963439e-05 3.4524102e-05 6.347454e-05 -3.6872475e-06 -2.2520537e-05 1.1628619e-05
-1.4468849e-05 3.430671e-06 3.8378545e-05 -2.7782075e-06 3.3006698e-05 7.0707705e-05 6.339878e-07 -3.7317863e-05
1.9667513e-07 -2.6732418e-05 -1.8664708e-05 2.1939839e-05 -2.09811e-06 4.113071e-06 3.792494e-05 -0.0325709
-0.0052551264 0.055601634 0.11413384 0.00523889 0.06903764 0.012513213 -0.21820988 -0.111512445
0.06743525 0.11513205 0.24595198 0.29994473 0.016404694 0.32772776 -0.023048684 -0.43895662
-0.1524882 -0.07553317 -0.07581037 -0.15495034 -0.04699724 -0.14619511 -0.22292729 -0.09928258
-0.23894306 -0.28528002 -0.12617613 -0.0726227 -0.12116991 -0.068700396 0.27487448 0.06725511
-0.16359429 -0.00489665 -0.13058805 0.13378008 0.19713287 0.18937562 0.2025327 0.75494885
0.46309283 -0.087763235 0.04494833 -0.13574815 -0.15544693 -0.051780283 -0.0959785 -0.1823342
0.07193085 -0.04595017 -0.1431301 -0.057314925 -0.08696915 0.08837898 0.09599145 -0.11704459
0.16282043 0.16808514 -0.30796885 0.050623257 0.18263423 -0.24442588 0.15867727 0.12955579
-0.12385147 0.19863616 0.40551156 -0.50796396 0.16392712 0.4305859 -0.22560346 0.037269413
0.011154654 -0.17791739 0.13996437 -0.01245521 -0.3327442 0.04018524 -0.00059510523 -0.21073462

477 f4 [8]
00000000: 0dfb 1640 140e d9b9 c14e eb3f c035 053f
00000010: 31fb c6ba 4e70 2f40 9a19 0d40 241d ec3f
2.359073 -0.00041399954 1.8383409 0.5203514 -0.0015181062 2.7412295 2.2046876 1.8446393

479 f4 [8, 1, 3, 3]
00000000: dcd1 10be 2794 3cbf 2633 79be abcd 6ebd
00000010: 82eb 78be d584 84bd 5f9f 773e 05f3 0d3f
00000020: 8d24 7b3e 7afd 3bb7 c4df 56b6 6476 91b6
00000030: 2e63 d4b7 cf2c a5b6 0b6e a636 d1d5 0cb4
00000040: 33a5 73b5 cad1 17b8 2210 11bd 27af 31bd
00000050: f4ed 17bd 5cac 0bbd c6a4 c43c 9e3d 8bbd
00000060: ca41 953d 5398 963b f759 dd3d 815a 3eba
00000070: 8491 9f37 36b5 0c3d e123 28be 8bba adbe
00000080: 6a34 ffbe ea28 1f3c 85ee dcbd 5ce0 823c
00000090: ffd7 a4b7 a8a2 4338 b65e 3a39 86c7 35b9
000000a0: 6aa8 90b9 cb1e 1739 e5d3 04b8 0c4c 8c38
000000b0: 8d49 0a39 1282 a43c 9a45 a03f 8a71 aebf
000000c0: 97b7 2e3d 87a6 c03f 43e3 bcbf 34ba 003e
000000d0: e817 273e 2aa8 17be f676 1a3d 460a de3d
000000e0: 5987 9abd 397e b5bd a8da e03e 5592 ccbe
000000f0: 5a7e ef3d cd36 933e 00e6 24be 636c 983d
00000100: ceba c03c e278 03bf 2d6c 213f 9ea4 b43f
00000110: 03c5 1cc0 3460 f13d fa5e 953e 46a6 ccbe
-0.14142555 -0.7366356 -0.24335918 -0.05830161 -0.24308589 -0.06470648 0.24181889 0.55448943
0.24525662 -1.1205086e-05 -3.2018734e-06 -4.3351192e-06 -2.5318554e-05 -4.9225996e-06 4.959996e-06 -1.3116302e-07
-9.076495e-07 -3.6196587e-05 -0.035415776 -0.04337993 -0.037092164 -0.03409992 0.024004351 -0.06798862
0.07287939 0.004595795 0.10808175 -0.0007261411 1.9022038e-05 0.034352504 -0.16419937 -0.33931383
-0.49844676 0.0097143445 -0.107876815 0.015976124 -1.9650905e-05 4.664311e-05 0.00017773625 -0.00017335833
-0.000275913 0.00014411953 -3.1668595e-05 6.689885e-05 0.00013188105 0.020081554 1.2521241 -1.3628399
0.042655554 1.505082 -1.4756855 0.12571031 0.16317713 -0.14810243 0.037711106 0.10841803
-0.07545347 -0.08861966 0.4391682 -0.39955392 0.116940215 0.28752747 -0.16103363 0.07442548
0.023526575 -0.5135633 0.6305569 1.4112737 -2.4495246 0.117859274 0.29174024 -0.39970607

480 f4 [8]
00000000: f1af 0a40 d4cc 2b39 0f19 1f3f b473 3240
00000010: 26af 0439 6dce 603f 4044 5cbc 74f5 6240
2.1669886 0.00016384135 0.6214761 2.788312 0.00012653749 0.8781498 -0.013444006 3.5462313

482 f4 [8, 8, 1, 1]
00000000: a601 263d bc1f 42b6 84ed ac3c 8a85 2bbd
00000010: 09db 2db7 b0bb 3cbc c9c5 db3c 92ac 9c3b
00000020: 23c5 6ebf 00d1 34b9 70f5 ba3d 9e02 4ebd
00000030: ddf4 d9b8 460d 8dbd 67ff a3bd 9702 953d
00000040: ad8e bfbc 1849 fdb7 749d ccbd ad9e 0e3e
00000050: 480d 0039 1432 9c3d 24cb a93c 77fd 01bd
00000060: 214c e2bc dc06 62b8 1105 c2bb 9a46 8f3e
00000070: 88fe 1ab9 32b8 21bd b363 c73b f4b9 55bd
00000080: 3900 5c3d 5608 b338 8444 30bd d0d4 813e
00000090: 97b5 4ab9 510d f1be 9268 bb3e 0f10 5bbe
000000a0: 8fc2 8f3b 006f 8435 7f2d bdbc 6dd2 2cbd
000000b0: 2330 e237 bf5c 0fbc 2340 443c e929 213c
000000c0: c764 2bbd fa19 8bb8 0921 dcbc e3de 243e
000000d0: cac2 b438 391a 443d 1e15 57bc 02f3 81bd
000000e0: 5478 c13d ceae 9eb7 6807 13bd a929 c73e
000000f0: f080 0d39 5e64 73bd d062 60bd 04db 8c3e
0.040528916 -2.8926725e-06 0.02110935 -0.0418754 -1.0362602e-05 -0.011519358 0.02682771 0.004781314
-0.93269557 -0.00017243996 0.09128845 -0.050295465 -0.00010392976 -0.06887297 -0.080076985 0.072758846
-0.023383463 -3.0193987e-05 -0.09990969 0.13927718 0.00012211979 0.07626739 0.020726748 -0.031735864
-0.027624192 -5.3888987e-05 -0.005921014 0.27983552 -0.00014781405 -0.039482303 0.006084883 -0.05217929
0.05371115 8.536938e-05 -0.04303409 0.25357676 -0.00019331869 -0.47080472 0.36603218 -0.21392845
0.004387207 9.867072e-07 -0.023092983 -0.042192865 2.6963715e-05 -0.00875014 0.011978182 0.009836652
-0.041844156 -6.632875e-05 -0.026871221 0.1610065 8.619351e-05 0.04787657 -0.013127593 -0.06345178
0.09446779 -1.8916468e-05 -0.035895735 0.38898972 0.00013494841 -0.05942189 -0.054781735 0.27510846

483 f4 [8]
00000000: 0d59 323b a61b 923f 90bb 56be 29b9 a1be
00000010: 388c ab3e 481c 8c3d fbaf 13be 9ae9 a4bf
0.0027213723 1.1414688 -0.20969987 -0.31586578 0.33505416 0.06841332 -0.144226 -1.288379

485 f4 [48, 8, 1, 1]
00000000: 2005 44bc 7627 223e 39c1 be3e 2649 31be
00000010: 5a03 ad3e 4ac8 5c3e 3e21 c5be 2dee d33d
00000020: 757f 02be 1f8a f93c 4f63 933e 0e0a 893e
00000030: d832 493d 812b e43e 53a1 e13e 8cb7 09be
00000040: 61f4 c83c 6880 58bd 3683 20bc 5e3f c2bd
00000050: 4f22 bebd d9d6 cebd 9ec9 3e3e 4427 71be
00000060: e052 1ebc 81ac 66bc bede 03bc b0eb 443d
00000070: 6009 53bd 5375 223e 59af a7bb b965 563d
00000080: 0b95 88bd 6be9 c43d 8c04 38bd 9600 fe3e
00000090: 2bad dd3e c60b debc 937e 083b 8cad 5e3d
000000a0: 6417 713a 596c c4bb f02d e7bb 04e6 f5bb
000000b0: 050e 233b 9b3c 123c f9ec 30bc e138 873c
000000c0: 6444 503d 5333 4d3c 1438 033b 8bbc 073d
000000d0: 2cf9 97bd d26b 9abe 3879 9c3d 5032 d0bc
000000e0: 490e ffbc 20ce 32bc 648f 093d e2e7 9dbd
000000f0: 863a bd3d a26c f4bd 40b8 f43d 4015 c23d
00000100: e553 a9bd f9aa 61bb fef8 93be 4116 11be
00000110: c215 443d 1c4f ce3d eee2 e03e 3ca4 2d3e
00000120: 484c cbbe b17b 303e 0464 03be aab5 443c
00000130: 3fc3 a8bd 8a80 463e 0822 ae3c 14d3 1bbd
00000140: ff48 c937 76ab ffb7 02c4 41b7 f101 7637
00000150: 7b4a bab7 e9e7 8f37 f896 8a37 c93c 29b7
00000160: f213 463e 6a84 57bd 068c ddbe 987a ee3d
00000170: 2959 a43c 8a19 0e3c 2ca8 fb3e 628d 89bd
00000180: 0efe 153e 3040 4dbc a2bd d5be 764f f0bc
00000190: a4a8 863e 6c73 1f3e eeb3 79bc 94be b9bd
000001a0: 2c09 fc3d 9a86 d8bd 457b ae3e 34b0 213d
000001b0: 9b1c b13d 5a2d 3b3f ba3b 813e 73f5 0dbe
000001c0: fe7f e9bd 8639 ddbd d682 c6bd e4f5 4a3d
000001d0: 02dd b2bc a0ba 883e 060b 87bc 3c95 263e
000001e0: 9c0a b83c c117 47bd 450e 05bd 737c 57be
000001f0: 292e af3e bbd3 ad3e 4622 2ebd 1dcb 2d3e
00000200: 7806 84bd e88f 2f3d a7f9 4f3c af49 bf3d
00000210: 3ccb 42be 6066 453e a173 78be fd32 82be
00000220: d81d 233e dca7 2ebe aa79 61be 2620 89be
00000230: ef5f 02bb 1f37 33bf 3860 16bd b20c 533f
00000240: add3 803d a7a7 7b3c 3de8 f33d 98a2 993d
00000250: 7f8b ad3c c65f 10be 6427 0bbd 9b24 0fbc
00000260: 0ec6 353e 7856 8abc 99d3 623c ca6c a03c
00000270: fa93 b4b9 3617 3ebd 5134 103d cee4 ad3b
00000280: 6394 c63d 5e43 adbc d8e9 80be 9f1c 713e
00000290: c086 663d 54dd 06bf 4ade c0be f5df 813d
000002a0: 65bb 153d f9fb 253d cd98 83be a34a 55bd
000002b0: f3dd ebbd 7006 8dbe c086 afbe b890 343d
000002c0: 02d7 e63c 6b22 a53c 7cd1 f13b 750d 0e3d
000002d0: a047 14bc 2e42 85bd f4da 883c 715e 12bc
000002e0: 3e9b ce36 da6a 4438 07a1 82b6 4c46 feb5
000002f0: 1c60 68b7 ed70 0137 3e56 1eb7 cb7a 5a37
00000300: 3f3f 883e 7796 ca3d 1d34 92be 938e c8bd
00000310: 8883 803d 1ba0 a83d 6390 a53e a732 b83d
00000320: 0a59 4dbe 9020 b4bd 6ffb cc3e d816 6ebd
00000330: 83fe fd3d caca b2bc 1d00 f4be 0890 d3bb
00000340: 2d33 6c3e 425a bbbe 8d9a 703e 123e 803d
00000350: 171d e23c d006 04be 2589 203d 336c a5bd
00000360: a3a0 e93d e6d8 f13d 2347 94be ddaa b53d
00000370: 8351 86bc 6686 0d3a 3417 b53e 4208 933c
00000380: 24c2 64bc f952 973c 1b08 b0bc 0f57 83bd
00000390: 6c05 68bd ae7b 793d 2a63 08be 02de 103e
000003a0: 1b2d 0c3b fbb3 043e b859 a03d f317 d3be
000003b0: 2303 343f 92e1 a1bd 4542 453e 3f30 8ebd
000003c0: 7f15 b6be 8569 43bd d8dd 513e bde6 643c
000003d0: 007d 9dbd 7245 5abc 644b 21be 6dc9 c43d
000003e0: be8c 14be 1c3f acbb ffd4 093e 5eae 983e
000003f0: 30cf f13e e46d 72be ebf1 3e3d 398e cbbb
-0.0119641125 0.15835366 0.37256792 -0.1731306 0.3379162 0.21560779 -0.38501924 0.10348163
-0.12743933 0.03046137 0.28786704 0.26765484 0.049120754 0.4456444 0.44068393 -0.13448924
0.024530591 -0.052856833 -0.009796908 -0.094847426 -0.092838876 -0.10099573 0.18631598 -0.23550135
-0.009663314 -0.014079214 -0.008048711 0.04807633 -0.051522613 0.15865068 -0.0051173386 0.052343104
-0.06669053 0.096148334 -0.04492621 0.49609822 0.4329618 -0.027105223 0.0020827397 0.054364726
0.0009196906 -0.0059943614 -0.0070550367 -0.0075042266 0.0024880182 0.008925582 -0.010798686 0.016506614
0.050846472 0.012524444 0.002002244 0.033138793 -0.07420573 -0.30160385 0.07640308 -0.025414616
-0.031134741 -0.010913402 0.033584014 -0.07710244 0.09239678 -0.119347826 0.119492054 0.09476709
-0.08267955 -0.0034434183 -0.28900903 -0.14168645 0.047872312 0.10073683 0.43923134 0.16957182
-0.39706635 0.17234685 -0.12831122 0.012006203 -0.08240365 0.19384971 0.021256462 -0.038043097
2.3995059e-05 -3.0478212e-05 -1.1549333e-05 1.4663195e-05 -2.220761e-05 1.715492e-05 1.6521182e-05 -1.0087338e-05
0.19343546 -0.052616514 -0.43270892 0.11644477 0.020062046 0.008673081 0.49151742 -0.0671642
0.14647695 -0.0125275105 -0.4174624 -0.029334765 0.26300538 0.15571374 -0.0152406525 -0.09069553
0.12306437 -0.10572548 0.34078422 0.03947468 0.08648034 0.73116076 0.2524088 -0.13863163
-0.11401366 -0.10801987 -0.09692924 0.049550906 -0.0218339 0.26704884 -0.016484749 0.16267866
0.022465996 -0.048606638 -0.03248431 -0.21043567 0.34214905 0.339506 -0.042513154 0.16972013
-0.06446546 0.04286185 0.012693799 0.09340226 -0.1902284 0.19277334 -0.24262859 -0.25429526
0.15929353 -0.17056221 -0.22019067 -0.2678234 -0.0019893607 -0.70005983 -0.036712855 0.82441247
0.06290374 0.015359796 0.1190953 0.075017154 0.021184681 -0.14099035 -0.033973113 -0.008736755
0.17751333 -0.016886935 0.013844394 0.019583125 -0.00034442527 -0.046408854 0.035206143 0.0053068167
0.09696271 -0.021150287 -0.2517841 0.23546074 0.05628085 -0.5268147 -0.37669593 0.063415445
0.036555666 0.040523503 -0.25702515 -0.052073132 -0.11516943 -0.27543974 -0.34282494 0.044083327
0.028178696 0.020158013 0.007379709 0.034680802 -0.00905028 -0.065067634 0.016705967 -0.008933649
6.157351e-06 4.6829555e-05 -3.893048e-06 -1.8944934e-06 -1.3850655e-05 7.715292e-06 -9.437614e-06 1.30224025e-05
0.26610753 0.0989198 -0.28555384 -0.09792819 0.062750876 0.08233663 0.3233672 0.08994036
-0.20053497 -0.08795273 0.4003558 -0.058127254 0.1240206 -0.021825213 -0.47656336 -0.006456379
0.23066397 -0.365923 0.23496456 0.06261839 0.027601762 -0.12893224 0.03919329 -0.08077278
0.11407592 0.11808948 -0.28960523 0.0887048 -0.01639629 0.000539875 0.35369265 0.017948274
-0.013962302 0.018472182 -0.02148824 -0.064130895 -0.056645796 0.060908966 -0.13319078 0.1414719
0.002138919 0.12959282 0.078296125 -0.4122921 0.70317286 -0.07904352 0.19263561 -0.06942796
-0.35563275 -0.047708053 0.20494783 0.013971028 -0.076898575 -0.013322221 -0.15751415 0.096087314
-0.14506814 -0.0052565467 0.13460158 0.29820532 0.47228384 -0.23674732 0.04661743 -0.0062120226

486 f4 [48]
00000000: d6ef 5cbf 398c e0bf 2290 5b3f 805b 733c
00000010: 6a36 483e 16b8 e6bd 88c9 b13f e653 113f
00000020: 8c3c 86bf 4e7e 4a3f 7cf5 31b9 e26d 49bf
00000030: d445 f1bd b852 61c0 ccd0 d1be 4ed8 b9bf
00000040: 3c0b 923f b272 503f e0f4 fd3e 7241 403e
00000050: aa3a 2840 fccf 1940 b04b 23bf bebf c5b8
00000060: 97a8 93bf ee90 213f 2480 96be 479b 91be
00000070: df77 203f 70c4 043f 7a2c d33e 75e8 a13e
00000080: 6447 08bf 4f62 80bf 9a08 0240 652f b13f
00000090: 7485 be3f ed59 36bf 024d b8be 2efc 3abf
000000a0: 4580 0cc0 c7ca 9fbe 5cb0 2240 666c 413f
000000b0: d94d ba3e b84b 9d3e 13fc 82bf c863 7fbf
-0.8630346 -1.7542793 0.85766804 0.014853358 0.19552007 -0.1126558 1.3889627 0.56768644
-1.0487227 0.79098976 -0.00016971485 -0.7868329 -0.11780897 -3.5206738 -0.40979612 -1.4519136
1.1409678 0.8142501 0.49600887 0.18774965 2.6285806 2.4033194 -0.63787365 -9.429407e-05
-1.1535825 0.6311177 -0.2939464 -0.2843878 0.6268291 0.5186224 0.4124487 0.31622663
-0.53233933 -1.0030001 2.031775 1.3842589 1.4884477 -0.71230966 -0.35996252 -0.73041046
-2.195329 -0.31209394 2.5420141 0.7555603 0.36387518 0.3072183 -1.0233177 -0.9976163

488 f4 [48, 1, 3, 3]
00000000: 2607 40bf 8ef3 1dbf 664d b3be dbc1 66bf
00000010: 66fc ee3b 0064 443f 7404 49bf c9d8 0c3e
00000020: 9294 473f e988 20bc 38bd 063e 028e 1f3e
00000030: 0205 17be 1a37 afbf a680 a2bf b892 9c3e
00000040: 938c 313f d4ca 673f da4e bf3e 2e8e fbbc
00000050: 3971 56be 8a89 583f c48d bc3e 54b5 a8bf
00000060: 81ee 5e3f b55f aa3e 9739 ccbf 4a51 363e
00000070: d175 5b3e 39d7 933f 972c 863e 8060 3040
00000080: 68c9 4140 2fe3 20bf 8132 51c0 76e9 3fc0
00000090: c4b9 293d 560c c3be 747f 69be 011f 2d3e
000000a0: fa01 a7be fc3a 1fbf e46d 0d3e f956 e5bd
000000b0: c3f3 26bf 4b69 edbd 1224 9abe bd23 a3be
000000c0: c935 4ebc f90b 0e3e 49fd 703d 00c8 913c
000000d0: d677 ba3e c4d8 a13e 1102 923f 6768 dc3f
000000e0: cd56 743f b413 11bd ef03 913f 97a2 ad3f
000000f0: d0f7 9ebf a9c9 39c0 e791 22c0 41e3 8abe
00000100: 3798 9fbe 962d 50bf 2db3 1bbf d006 ffbf
00000110: 8826 983f e373 fcbe d97f 8abe 9bf8 18bf
00000120: 1275 823c f922 aebe 1f66 eabe a99c c13e
00000130: a6ca 0bbf b93d 8abf 119c b73e d66e e3be
00000140: ad26 3dbf 27b4 893e 1281 bd3e ab96 e43e
00000150: 74eb e73e 63a4 793e 7c3f 5f3d a174 8c3e
00000160: 5524 7dbe 682d e1be 5fde 3eb6 ff5f 3ab7
00000170: 897d 86b7 161c 56b5 5e4a 83b6 665b 0ab7
00000180: 879f bcb6 67c9 91b6 ed0a fdb6 7653 ccbe
00000190: b112 e4bd 6429 4cbe c578 acbf 25e2 533f
000001a0: 0c81 f03f 1d42 f0bf b749 613f 5cfa e03f
000001b0: 57e8 ad3e b88a 8dbd a705 103e 0f0f d23f
000001c0: 466b cb3f 223e bb3c f6ac 6b3f af8a 4bbd
000001d0: af65 9abf 46e9 94be 6302 49bf f785 34be
000001e0: 347c 66be b532 903f ba28 b13f aa84 1f3f
000001f0: 89bf 02bf b89b 1cbf 8188 b0bd aa56 32bf
00000200: 795d 4ebf c3b7 63be 0bcb 4fbc 1fac f93d
00000210: 847c 7f3d 16fc 453f b537 393f 12cd 07bf
00000220: d770 2cbf 80f4 bebd 1c80 8b3f 3309 823f
00000230: 8e20 e53e 9165 cd3f ea54 8e3f f145 92be
00000240: 5c40 d93c 0159 a03e 52e6 6d3c f758 e33e
00000250: 2822 a9be baf0 993e b2d9 dd3e 7f23 75bf
00000260: f3ca bb3f f82b 69be 566e a53d 6c82 813d
00000270: 022e acbe 1b1f 743f 6161 85be 00c1 cdbb
00000280: b12a 80bf 3d42 22be c23c 48be 5766 abbd
00000290: 5127 12be 5a98 493d 40de 05be 8249 1ebf
000002a0: 49e7 8b3e 23ef 66bd 46b8 26bf 3593 d7bd
000002b0: f40a 903e 3150 6b3e fabc 0b40 6157 d63d
000002c0: b699 6bbf 4723 1240 598a 083f ad1a 90bf
000002d0: 729d 69be 23e7 613d 5e23 863e 7919 243e
000002e0: 85a8 98bf baba a3bf 059b fa3b ccc0 b33f
000002f0: 3cbe a13f d46e 4f3e d0d6 c83e 936f 273f
00000300: cce6 babd c21f 873e 474d 9d3e 6179 7fbe
00000310: b386 94bf 7c39 84bf 3800 21c1 b3bb 9541
00000320: b9e0 1142 7839 fac1 c6ef a340 328e 3c42
00000330: 89f6 9cc0 519d e740 3d2a 1a41 40fe 77b7
00000340: cec5 dab5 9379 d4b6 5bf7 1db7 c7b7 f7b5
00000350: d5e7 2eb7 1c80 10b7 0234 c1b5 62c9 06b7
00000360: ad01 d33b f83e c3bc ab68 a63e dc63 af3e
00000370: 10cd 0abf 2aef 1fbf fd44 883e 4dc4 6dbe
00000380: 6de0 7dbe 784a 913f 086d 283f 64fa b73e
00000390: fcfc bd3e 4fbb 3bbf 4f36 dbbf be69 123f
000003a0: c2fd bebe 677a c6bf a0fe 35be 2ffc 43bf
000003b0: d2bb 7cbf 94c6 89be 4a0d 91be 33c1 28bc
000003c0: 2a53 c13d 057f 453e 5692 293f 872a 4fbe
000003d0: 441f c53c 9824 8e3e 15cf b8be b99e 1f3f
000003e0: 4699 703f 409e e1be 1f51 be3e 3f7f 4e3f
000003f0: 7b7f c0be 1065 40be b6d0 32bf 5322 2a3f
-0.7501091 -0.6169976 -0.35019988 -0.9013955 0.007293272 0.7671509 -0.7852242 0.13754572
0.77961075 -0.009798267 0.13158119 0.15581515 -0.14748004 -1.3688691 -1.269551 0.30580688
0.69355124 0.90543866 0.37364846 -0.030707445 -0.20941629 0.8458487 0.3682691 -1.3180337
0.8708268 0.33276144 -1.5955075 0.17804447 0.21431662 1.1550056 0.26205894 2.75589
3.0279179 -0.62846655 -3.2687075 -2.9986243 0.041436926 -0.3809535 -0.22802526 0.16906358
-0.32618695 -0.6219938 0.13811451 -0.11198229 -0.652157 -0.11592349 -0.30105644 -0.31863204
-0.012586066 0.13871755 0.0588353 0.017795563 0.36419553 0.31610692 1.1406881 1.7219361
0.9544495 -0.03541918 1.1329325 1.3565243 -1.2419376 -2.9029334 -2.5401552 -0.27126506
-0.31170818 -0.8131956 -0.60820276 -1.9923954 1.1886759 -0.49307165 -0.27050665 -0.5975434
0.015924964 -0.34011057 -0.45781037 0.37814835 -0.5460609 -1.0800086 0.35861257 -0.444205
-0.7388714 0.26895258 0.37012535 0.446462 0.45296824 0.24379115 0.054503903 0.2743273
-0.24720891 -0.43979955 -2.8441643e-06 -1.1108815e-05 -1.6032502e-05 -7.976208e-07 -3.9127617e-06 -8.246721e-06
-5.621408e-06 -4.344783e-06 -7.5412595e-06 -0.39907426 -0.111363776 -0.19937664 -1.3474356 0.82766944
1.8789382 -1.8770176 0.88003105 1.7576404 0.33966324 -0.06911224 0.14064656 1.6410846
1.5892112 0.022856776 0.9206079 -0.049692806 -1.2062281 -0.29084224 -0.78519267 -0.17629229
-0.22508317 1.1265475 1.3840554 0.62311804 -0.5107351 -0.6117511 -0.08619786 -0.6966349
-0.8061138 -0.22238068 -0.012682687 0.121910326 0.062374607 0.7733778 0.7235063 -0.5304729
-0.6735968 -0.093239784 1.0898471 1.0159057 0.447514 1.6046621 1.1119664 -0.28568986
0.026519947 0.31317905 0.014520245 0.44403812 -0.33033872 0.30066472 0.4333015 -0.9575729
1.467131 -0.22770679 0.080776855 0.06323704 -0.3362885 0.95359963 -0.26050857 -0.006279111
-1.0013028 -0.1584558 -0.19554427 -0.08369129 -0.1427281 0.04921756 -0.13073063 -0.61830914
0.27324894 -0.056380402 -0.6512493 -0.105261244 0.28133357 0.2297981 2.1834092 0.10465885
-0.9203142 2.2834032 0.533361 -1.1258141 -0.22813967 0.05515207 0.26198858 0.16025342
-1.1926428 -1.279136 0.0076478743 1.4043212 1.263618 0.20257121 0.3922639 0.65404624
-0.09126052 0.26391417 0.3072302 -0.24948646 -1.1603607 -1.0330043 -10.062553 18.71665
36.469456 -31.27806 5.123019 47.138863 -4.9050946 7.2379537 9.635312 -1.4781544e-05
-1.6299834e-06 -6.3322454e-06 -9.415521e-06 -1.845642e-06 -1.0425186e-05 -8.612897e-06 -1.4394757e-06 -8.0339105e-06
0.0064394088 -0.023833737 0.3250173 0.34255874 -0.5421915 -0.6247431 0.26615134 -0.23219414
-0.24792643 1.1350851 0.6579137 0.3593322 0.37107074 -0.73332685 -1.7125949 0.571926
-0.37302977 -1.5506104 -0.17772913 -0.76556677 -0.9872409 -0.26909316 -0.2833045 -0.0102999685
0.094396904 0.19286735 0.66238916 -0.20231067 0.02406276 0.27762294 -0.3609549 0.62351567
0.93983877 -0.44066048 0.37171265 0.8066291 -0.3759726 -0.18788552 -0.6984972 0.66458625

489 f4 [48]
00000000: 9ec0 113f fd49 bb3f 2851 673f 85f7 ac3e
00000010: 43e7 8a3f 41a3 e03c 3877 7e3f 50c7 1340
00000020: f487 413f 8ca9 af3d f92e 61b9 7991 9bbe
00000030: fee0 9abe 739b 1b3f 2315 603e f808 b8be
00000040: 213a 85bf d49e 4a3e d22a 4c3f 5537 dabf
00000050: ce9d 6f3f 8d80 873f fdcc 12be 8fc5 7bb9
00000060: cea0 433f d5a3 153f 5887 883f 39d1 14bf
00000070: e445 cb3f 80fa f43b 7a4f e73e 21b4 ad3f
00000080: a1c5 2bbf abbb 72be 3ab4 2f3f 1892 193f
00000090: 2cd9 413e e491 95be 2bc6 11bf 8aff 943e
000000a0: 7981 10bf a6b5 4d3f f183 b5be 8c00 5f3f
000000b0: d2d5 5340 62d0 083f 0b2a 343f a99d 5e3e
0.56934536 1.4631954 0.9035821 0.33782592 1.0851825 0.027421596 0.99400663 2.30904
0.75598073 0.085772604 -0.00021475171 -0.30384424 -0.3024978 0.6078407 0.21883063 -0.35944343
-1.0408365 0.1978715 0.7975284 -1.7048136 0.93600166 1.0586106 -0.1433601 -0.00024010822
0.76417243 0.5845311 1.0666304 -0.5813175 1.5880704 0.007476151 0.45177823 1.3570596
-0.6709843 -0.23704402 0.6863438 0.59988546 0.18930501 -0.29212868 -0.56943005 0.2910121
-0.5644756 0.803553 -0.35452226 0.8711021 3.3099256 0.53442967 0.7037665 0.2173983

491 f4 [8, 48, 1, 1]
00000000: cf2e 4cbd f963 0cbf 557e 0fbe 464b c53a
00000010: c135 9e3e 20d1 c33c 3aeb 803e ba1f 6a3e
00000020: de27 1dbd ec39 833e b5d1 15b9 1572 0dbe
00000030: f165 e8bc f036 a03e 1376 9e3e 010c 0d3e
00000040: 840a 943d a679 573d 1a01 343e ba95 acbe
00000050: dcf1 af3e c464 61be 1117 133e d4e1 31b8
00000060: 746d 4b3e 8a67 a1bc 3829 b83e 2045 90be
00000070: 279a 2cbd f686 403e 1847 99bd cded f9be
00000080: 5822 223e 614e e9bd c485 37be 91ad 79be
00000090: 25a7 383b aaa0 9abe be1a 303c 261f 953e
000000a0: efe0 36bc a28d 37bf 1427 d83d 91dd a73d
000000b0: 25dc 17be b75e dc3c efa1 6fbe 6c15 bbbe
000000c0: d9ac 98bd a21b 98bf b75e 533d 8df3 39be
000000d0: 9fac 23be 43fa 17bc eb3f 193e 73ec 673e
000000e0: 2bd5 313e ada2 1dbd 274a e5b8 ae44 203e
000000f0: 7242 7ebd 383c ba3e e769 f0bd f4e8 e7bc
00000100: 810a 673e 282a 2c3e 2042 c5bd 2127 053e
00000110: 6c5a 9f3e 6d3c 6f3e d864 363e b38b fa38
00000120: ff95 32be 1dc5 a23d d981 143e 20ba 9f3c
00000130: 37eb de3e c289 433e 6328 e9bd fcdd 573e
00000140: a5ea 303f 0827 e53e da07 8f3e b77d 3b3e
00000150: 2364 e33d 7ca7 1cbd d576 303d 66dd f2bd
00000160: e2bd 483e ad59 a43e 7321 c7bd 171f 54be
00000170: b5fb bd3e bb0a 3fbd de20 523e bb2e 283e
00000180: 776a 4fbe 3cc8 b23e a96f a9be 25fe 30bf
00000190: 3e06 403e 726a 403c e52f 413f b16a ee3d
000001a0: 1197 7e3d b2bd d0bd 7809 9039 f2cd ad3e
000001b0: f85f eebc 83e6 62be b67d 5e3e 0088 a13c
000001c0: 0574 1ebe c49e 25be 7c94 a6bc a7c0 72bd
000001d0: ee1c abbe 515d 1e3f 3a4f 2abd a86d 34b9
000001e0: 93ec 043c 7d7d 103d c893 83be 8bdb 8ebd
000001f0: 393f ea3b 4fa0 1c3e d865 60be 4aa4 0ebe
00000200: ff36 673c 8477 8e3d eef9 6cbe 1681 93bd
00000210: 8e13 44bd b69a 083e 336e acbe 1db7 2f3e
00000220: ec8e eabd f4a3 173d 74a8 053f 8fdb 70be
00000230: 0c85 d83d d060 0b3b 7a07 cb3d f316 8e3e
00000240: 2efb 253d 1778 be3c ea31 143d b0d1 36bc
00000250: 5019 02be 017e cabb 40f0 80bb 0cb9 2dbd
00000260: ce29 1d3e da9b 4d3d 4f1d 2b38 7b80 803b
00000270: 0764 20be 6d80 febb d5af a4bd 569e f63c
00000280: 993a 9bbd 2c9d 143c ea53 0dbe 6629 773e
00000290: e637 1cbe 1a08 ae3c 5218 09be ed9b c3b6
000002a0: 1b41 1eba 1680 e13c e986 763d d146 c73c
000002b0: 9b3b 28bd dca1 c03b 129e 1ebe 2afa 1c3e
000002c0: b293 223c 96f3 933d 01fc 6e3d ccb5 0d3e
000002d0: 46a5 5f3d 9f0c 8dbd d402 b4be 846f 1cbd
000002e0: 1f0f d43b ead5 033e bd3f acbd 959d ef3c
000002f0: f877 85be f087 0d3e a457 9c3d 0baa 4fbd
00000300: 7adf 88be 023f 4d3e 5cab 41bf 9402 dd3e
00000310: 1423 dd3e b905 6cbc 7572 66be c9b5 e53d
00000320: 1da1 d13d 0abe e33d 397a 1f38 be06 363e
00000330: 4215 323c 78cd 443d e06e 29be 98dc 90bd
00000340: 7464 c63d dda3 36be 9d79 44bd edfc 0f3d
00000350: 4b7d f43d f244 45be 48b7 9e3c 35a1 49b9
00000360: c2c6 7d3e fb6a e03d 735b 8c3c 1968 3a3e
00000370: 0107 2a3f 3f38 2f3e eff4 50be 70dd 14bf
00000380: 2da2 3fbe e072 033e da4e e5be 084f 27bc
00000390: bb5c 17bd 860d f43d 51e6 8abe 757c c23e
000003a0: d307 03be 8870 103d 6d0c 95be a212 3bbf
000003b0: e5bd 3d3d cea7 063d b06e 02be c31e 6abd
000003c0: 5b8c 4f3e a7a2 343e ddd8 a2bd 6d04 18be
000003d0: 2177 52be bd3d 89bc a70e 89bd 8cc1 9f3d
000003e0: 031c c53e 1e3a b23e 7ff1 fa38 0313 50bf
000003f0: f59c d5be 80fe 7bbd b5e5 12be 5f4c 13be
-0.049849328 -0.54840046 -0.14013036 0.001505234 0.30900386 0.02390343 0.25179464 0.22863665
-0.0383681 0.25630128 -0.00014287869 -0.1381305 -0.028368922 0.31291914 0.30949458 0.1377411
0.07228568 0.052606247 0.17578545 -0.33707982 0.34364212 -0.22011095 0.14364268 -4.2410407e-05
0.19865972 -0.019702692 0.35968947 -0.28177738 -0.0421392 0.18801484 -0.07484263 -0.4881424
0.15833414 -0.11391903 -0.17922121 -0.24382617 0.0028175798 -0.30200702 0.010748563 0.29125327
-0.011162027 -0.7170049 0.105543286 0.08196557 -0.14830072 0.026900632 -0.23401617 -0.3653978
-0.07454843 -1.1883433 0.051604 -0.18159313 -0.15983818 -0.009275976 0.14965789 0.22648792
0.17366473 -0.038485218 -0.00010933383 0.15651199 -0.062075086 0.36374068 -0.11738949 -0.028309323
0.225626 0.16812956 -0.09631753 0.13003208 0.31123674 0.23362894 0.17811906 0.0001194695
-0.17440031 0.079477526 0.14502658 0.019497931 0.4353883 0.19095519 -0.11384656 0.21080774
0.6910804 0.4475634 0.27935678 0.18309675 0.11103084 -0.038245663 0.043082077 -0.11858635
0.19603685 0.32099667 -0.09723177 -0.20714985 0.371061 -0.046641093 0.2052035 0.16424076
-0.20255457 0.34918392 -0.33093002 -0.69137794 0.18752381 0.011744129 0.75463706 0.116414435
0.062155787 -0.101924315 0.00027472875 0.33946186 -0.029098496 -0.22158246 0.21727642 0.01971817
-0.15473945 -0.16173846 -0.020334475 -0.05926576 -0.3342051 0.6186114 -0.041579463 -0.00017206988
0.008113044 0.035275925 -0.25698686 -0.06975468 0.00714865 0.15295528 -0.2191385 -0.13929859
0.014112233 0.069563895 -0.23142216 -0.072023556 -0.04787021 0.13340268 -0.33677825 0.17159696
-0.114530414 0.037021592 0.52210164 -0.23521255 0.10572252 0.0021267422 0.099135354 0.27751884
0.040522747 0.023250623 0.036180414 -0.011158392 -0.12704968 -0.0061795716 -0.00393489 -0.042412803
0.15347978 0.05019746 4.0796873e-05 0.003921566 -0.15663157 -0.0077667744 -0.0804135 0.030104797
-0.07579536 0.009070676 -0.13801542 0.24136886 -0.15255699 0.021244098 -0.13388184 -5.829605e-06
-0.0006036923 0.027526896 0.060187254 0.02432576 -0.04107247 0.00587867 -0.15489987 0.15329805
0.009922909 0.07224195 0.0583458 0.13838881 0.054600976 -0.06887173 -0.35158408 -0.038192287
0.006471529 0.1287457 -0.084105946 0.029249946 -0.2606809 0.13821387 0.076339036 -0.050699275
-0.26733 0.20043567 -0.756521 0.4316603 0.43190825 -0.014405661 -0.225046 0.112163134
0.10235808 0.111202314 3.8022383e-05 0.1777601 0.010869326 0.048047513 -0.16546202 -0.07073325
0.09687129 -0.17835946 -0.047967542 0.03515332 0.1193796 -0.19264582 0.019374505 -0.00019228908
0.24782851 0.10957905 0.01713345 0.18203773 0.6641694 0.171113 -0.20405935 -0.58150387
-0.18714209 0.1283679 -0.4478672 -0.010211714 -0.03695367 0.11916642 -0.27128842 0.37985578
-0.12795953 0.03526357 -0.29111043 -0.73075306 0.046323676 0.032874875 -0.12737536 -0.057158243
0.20268385 0.17640172 -0.0795152 -0.14845438 -0.20553257 -0.016753072 -0.06692248 0.07800588
0.38497934 0.34809965 0.00011965911 -0.8127901 -0.4172131 -0.061522007 -0.14345439 -0.14384602

492 f4 [8]
00000000: 8f8d 3c3f 7564 40bf 3669 1d3f 4842 07be
00000010: 7fa3 b73f 1132 abbf 5642 a13e 42fb 7f3f
0.736535 -0.75153285 0.61488664 -0.13208878 1.434677 -1.3374654 0.31495923 0.99992764

494 f4 [48, 8, 1, 1]
00000000: 802d 6d3d 913f 78ba 6d31 c13c 57e0 99bd
00000010: 5a56 b7bb b639 cbbd c20f 0dbc 613c 553c
00000020: 95ff b2bd 5f2e 923d 9100 efbc 8bd1 6b3e
00000030: ad05 26be 63a0 65be a587 b4bd bf71 1f3d
00000040: 7fbd 753e 3309 73bd e1b7 57bd d9e5 b1bd
00000050: 08ea 85bd dadd a83e 7733 72bd d761 cbbd
00000060: 854d f33d 5ba8 20bc 21c5 c43d af18 9fbd
00000070: 8ede 9e3e 54ac 8c3d dc40 643d fd5f e1bc
00000080: e36e 723d 321d f0bd 1431 58bb 51f1 b4be
00000090: db13 1d3e 0e87 b53c 7b44 29bd d3c1 803d
000000a0: 8d06 193d c3e0 013d 70ce ea3d ab3b 9f3e
000000b0: 5b64 983e a446 3ebc 40a7 033e 016a babd
000000c0: 7c1a 793d 2872 b3bc bae8 b43c ae7a b8bc
000000d0: c72c 95bd 6e8e 883e 1225 94bc bad4 e6bb
000000e0: 9ad2 c0bb 1cb9 853b ac36 ec3b a6ed 903b
000000f0: b341 9b3b 8e9e 86bb a290 c23b 10c0 66bc
00000100: e6ab eabd 86b5 383d 7e8a 323d 2361 ccbd
00000110: 8014 b33c 8555 87be 7f97 9ebd d0f3 47bd
00000120: 9a25 7b3c 6b23 38bd 9376 373e a2c6 723c
00000130: e43d 75bd 7224 a93d 908e 83bc 5ce5 9a3b
00000140: d563 023a 807c 11bc 26c3 8cbd fc16 34be
00000150: 6e03 53bc 82de d0bd 843f 24be b094 7a3c
00000160: 1624 f239 4d0a 61be 7a7a 19be a375 023d
00000170: a02e 333e 613e 17bd a8cf fdbc 4b3f 463d
00000180: 4185 5fbd 77d5 34bc fedc bebe fb3b e5bd
00000190: 7095 013e 264f cebd c597 f43d 7e5a 4f3d
000001a0: 3c93 4f3e e5ef 4dbe b2c9 eabc a59b 0ebd
000001b0: 85be c7bb db74 82bc 1a6c 6d3e a473 85bd
000001c0: 3c97 223e 2ef0 323e 2728 15bd 0044 593d
000001d0: eaf8 a33d 3e40 6bbc 7844 923d d8b8 fd3d
000001e0: 807f 8cbd 8423 40bc 66e0 6bbd 1fdb 8e3c
000001f0: ff3d e0bd 99b6 653d 1460 613c ef74 c43c
00000200: eb43 423d 2613 37bc 2e88 193e 8e0f edbd
00000210: 32b1 bc3e f839 2f3c af2b 773d 2d63 ecbc
00000220: 2efb 533c 32a8 3f3c 8854 2a3e 7366 49bd
00000230: 2706 3f3e 26b7 103e acec 8d3d 428c 24bd
00000240: 8504 a2bc dbf9 d33c 97b7 59bd a891 f33c
00000250: 735f 44be a255 70bd 91a5 15bb 3638 673c
00000260: b1d4 82bc a8e5 4a3e af0b 2e3d 454e 35be
00000270: 8cc2 3bbd 04ce acbd 3c76 bb3e 725d 96bb
00000280: e955 23bd 2a0d 77bd ba5d e5bd 1e2f eb3e
00000290: f768 b53d 84ce ca3e e387 f23d a6d7 883e
000002a0: d1d3 c8bc 11fa 523d 5c3c 513d 90d2 dbbd
000002b0: 2696 9b3e 365e 0fbe 25ef b0bc 79fb d63d
000002c0: 015b 0fbe 4fd5 8cbd adba 92bd ac1c c9bd
000002d0: a827 42be d510 20bd 5024 73bd 9540 b53e
000002e0: ed18 b3bc 41ca 343c 9dcf 6dbb 0c0e 61bc
000002f0: fa56 eb3b 296a dabc daa4 e3bb 30dd 993c
00000300: 0017 22be 90ba 57be f28c e3be dfe9 8abd
00000310: fb38 7d3e 8883 62bd 8968 a8bd fdae edbc
00000320: c3d7 033e 9d46 c7bd 8ee5 b23d 5ee3 083e
00000330: 06e8 943e 31b3 513d bc6f 823d 6ac8 c2bd
00000340: 7dcc 813b 8cad 30bb aebd f439 968f ac39
00000350: 21d4 6cba 063b d7ba 8939 903b edfe c239
00000360: 30f4 bfbd 5144 d1bc 90b8 95be e30f dd3c
00000370: 55ba 84be a8fc 0bbd 104f d1bd daf4 1f3e
00000380: 3cf7 c0bc b345 f13d 5584 eebd cc1c d8be
00000390: 9a6c 84be 203d 5d3d ef6b 5a3d a98f 8dbd
000003a0: a375 aa3d c440 12bd d534 28be fcdc 75bd
000003b0: dca7 b03c 4d3f 89bd a4ea f63d 9428 32bd
000003c0: 4ab2 2dbe 7776 8dbc 5d2e ccbd ddf7 c7bd
000003d0: 0f30 b13e c21c 84bc 30cd b4bd 21ca 11be
000003e0: 7ceb d93d acf1 1d3d 8310 a93d 2aa2 28bd
000003f0: 8bcb 6f3e d007 b63b a6cb 193d 1aed 87bd
0.05790472 -0.00094699214 0.023583138 -0.075134926 -0.0055950107 -0.09923117 -0.008609714 0.013014884
-0.08740155 0.07137751 -0.029175075 0.23029153 -0.16213103 -0.22424464 -0.08814935 0.038926836
0.23998068 -0.059334945 -0.052665595 -0.08686418 -0.065387785 0.3298176 -0.059131112 -0.09930771
0.1188002 -0.009805764 0.09607912 -0.0776838 0.3102917 0.068688065 0.055725917 -0.027511591
0.05918778 -0.117243186 -0.0032988237 -0.3534036 0.15339606 0.022159126 -0.041325074 0.06286969
0.037359763 0.03170849 0.11465156 0.3110021 0.29764065 -0.011613522 0.1285677 -0.0910225
0.060816273 -0.02190502 0.022083629 -0.022519436 -0.07283931 0.26671165 -0.018084083 -0.007044402
-0.0058844807 0.0040809046 0.007208666 0.004422861 0.0047380566 -0.0041082567 0.0059376517 -0.014083877
-0.11458568 0.04509499 0.043589108 -0.09979465 0.021860361 -0.26432434 -0.07743739 -0.048816502
0.015328789 -0.044955652 0.17916326 0.014817866 -0.059873477 0.082589045 -0.01605919 0.004727049
0.00049739826 -0.008879781 -0.06873159 -0.17586893 -0.012879236 -0.1019869 -0.16039854 0.015294239
0.00046184723 -0.21976586 -0.14988127 0.03185047 0.17498255 -0.036924724 -0.030982807 0.048400205
-0.05457044 -0.011037222 -0.3727798 -0.11193081 0.12654662 -0.1007369 0.1194301 0.05062341
0.20271009 -0.20111044 -0.028660629 -0.034816403 -0.0060957097 -0.015924862 0.23185769 -0.06516197
0.15878004 0.17474434 -0.036415245 0.053043365 0.08006461 -0.014358578 0.07141966 0.12388772
-0.06860256 -0.011727218 -0.05758705 0.01743847 -0.10949325 0.05608234 0.013755817 0.02398154
0.047428053 -0.011173999 0.14993355 -0.115752324 0.3685394 0.010694973 0.060344394 -0.028855884
0.012938304 0.011697816 0.16633809 -0.04916997 0.1865469 0.14132366 0.06929907 -0.040172823
-0.019777546 0.025875976 -0.0531536 0.02973254 -0.19177036 -0.058675416 -0.002283428 0.014112523
-0.01597056 0.1981417 0.04249161 -0.17705639 -0.04583983 -0.08437732 0.36613643 -0.0045887763
-0.039876852 -0.06031529 -0.111995175 0.45934385 0.08857911 0.39610684 0.118423246 0.26727027
-0.024515064 0.051508013 0.051082954 -0.10733521 0.30387992 -0.14000782 -0.021598408 0.10497183
-0.13999559 -0.06876623 -0.07164512 -0.09819922 -0.1896044 -0.039078552 -0.059360802 0.35400835
-0.021862471 0.011034549 -0.0036287077 -0.013736259 0.0071819993 -0.02666195 -0.006947142 0.018782228
-0.15829086 -0.21067262 -0.4444347 -0.067828886 0.24728768 -0.05530122 -0.082230635 -0.029014105
0.12875275 -0.09730265 0.0873519 0.13367984 0.2908327 0.05119628 0.06368968 -0.09510882
0.0039611445 -0.002695891 0.0004668063 0.00032913376 -0.0009034295 -0.0016420789 0.00440139 0.00037192498
-0.09372747 -0.025545271 -0.29242373 0.026985114 -0.2592341 -0.0341765 -0.10220158 0.15620747
-0.02355539 0.11780872 -0.11646334 -0.4220947 -0.25864106 0.05401337 0.05332559 -0.069121666
0.08323219 -0.035706297 -0.16426404 -0.0600252 0.021564417 -0.06701527 0.12056473 -0.04349573
-0.16962543 -0.017268403 -0.099697806 -0.09764073 0.34606978 -0.016126994 -0.08828199 -0.14237262
0.10640618 0.038560554 0.082551025 -0.041170277 0.23417489 0.0055551305 0.03754773 -0.066370204

495 f4 [48]
00000000: 44a1 af3e df39 2a3e d0a2 983d 510f f23c
00000010: 4abc 643e ba8f 893c b73a 4e3f d113 ce3e
00000020: 910e c53e 79ff a43e 4aa2 e83e d756 773e
00000030: 5413 673c 652d 393f dcaf 063e 7214 283f
00000040: d0b4 b53d 3fcc 1c3e 462e cb3e 96ca 283e
00000050: 9780 753e 26c2 0ebe 5e4f 753d 16be 9b3e
00000060: f352 433e 6d62 fabc 74c4 033f 2c0c 9abd
00000070: 04b6 5a3e 806f c73e c16a efbd f87b a53e
00000080: e271 fabc a8f1 7d3e 26eb 283e dcba d23d
00000090: e4f4 903e 0f2c b83e 1af0 bbbe 6fb9 11be
000000a0: daef 503b c2b2 febd 93ca 6e3e 1e0f f23c
000000b0: 3071 563e 2731 933e b5d1 fd3d 9aad 933d
0.34302723 0.16623639 0.07452929 0.029548319 0.22337452 0.016792167 0.8055834 0.40249494
0.38487676 0.3222616 0.45436317 0.2415422 0.014103729 0.7233489 0.13153023 0.656562
0.08872378 0.15312289 0.3968374 0.1648353 0.23974834 -0.13941249 0.059890144 0.30418462
0.19074611 -0.030564511 0.5147164 -0.07521853 0.21358496 0.38952255 -0.116902836 0.32321143
-0.030571882 0.24799216 0.16495952 0.10289547 0.28311837 0.35971114 -0.3670662 -0.14230894
0.0031881244 -0.12436439 0.23319463 0.029548224 0.20941615 0.28748438 0.12393514 0.07210846
